…
e = torch.Size([3, 64, 224, 224]) Output shap = torch.Size([3, 128, 112, 112]) . summary(mobileNetBlock,input_size=input_size,col_names=[&quot;kernel_size&quot;, &quot;output_size&quot;, &quot;num_params&quot;, &quot;mult_adds&quot;]) . ============================================================================================================================================ Layer (type:depth-idx) Kernel Shape Output Shape Param # Mult-Adds ============================================================================================================================================ Sequential -- [3, 128, 112, 112] -- -- ├─Conv2d: 1-1 [3, 3] [3, 64, 112, 112] 576 21,676,032 ├─BatchNorm2d: 1-2 -- [3, 64, 112, 112] 128 384 ├─ReLU: 1-3 -- [3, 64, 112, 112] -- -- ├─Conv2d: 1-4 [1, 1] [3, 128, 112, 112] 8,192 308,281,344 ├─BatchNorm2d: 1-5 -- [3, 128, 112, 112] 256 768 ├─ReLU: 1-6 -- [3, 128, 112, 112] -- -- ============================================================================================================================================ Total params: 9,152 Trainable params: 9,152 Non-trainable params: 0 Total mult-adds (M): 329.96 ============================================================================================================================================ Input size (MB): 3
…
h.Size([3, 64, 224, 224]) Output shap = torch.Size([3, 128, 112, 112]) . summary(mobileNetV2Block,input_size=input_size,col_names=[&quot;kernel_size&quot;, &quot;output_size&quot;, &quot;num_params&quot;, &quot;mult_adds&quot;]) . ============================================================================================================================================ Layer (type:depth-idx) Kernel Shape Output Shape Param # Mult-Adds ============================================================================================================================================ MobileNetv2Block -- [3, 128, 112, 112] -- -- ├─Sequential: 1-1 -- [3, 128, 224, 224] -- -- │ └─Conv2d: 2-1 [1, 1] [3, 128, 224, 224] 8,192 1,233,125,376 │ └─BatchNorm2d: 2-2 -- [3, 128, 224, 224] 256 768 │ └─ReLU6: 2-3 -- [3, 128, 224, 224] -- -- ├─Sequential: 1-2 -- [3, 128, 112, 112] -- -- │ └─Conv2d: 2-4 [3, 3] [3, 128, 112, 112] 1,152 43,352,064 │ └─BatchNorm2d: 2-5 -- [3, 128, 112, 112] 256 768 │ └─ReLU6: 2-6 -- [3, 128, 112, 112] -- -- ├─Sequential: 1-3 -- [3, 128, 112, 112] -- -- │ └─Conv2d: 2-7 [1, 1] [3, 128, 112, 112] 16,384 616,562,688 │ └─BatchNorm2d: 2-8 -- [3, 128, 112, 112] 256 768 │ └─ReLU6: 2-9 -- [3, 128, 112, 112] -- -- ============================================================================================================================================ Total params: 26,496 Trainable params: 26,496 Non-trainable params: 0 Total mult-adds (G): 1.89 ============================================================================================================================================ Input size (MB): 3
…
e([3, 64, 224, 224]) Output shap = torch.Size([3, 128, 112, 112]) . summary(TorchMobileNetV1Block,input_size=input_size,col_names=[&quot;kernel_size&quot;, &quot;output_size&quot;, &quot;num_params&quot;, &quot;mult_adds&quot;]) . ============================================================================================================================================ Layer (type:depth-idx) Kernel Shape Output Shape Param # Mult-Adds ============================================================================================================================================ InvertedResidual -- [3, 128, 112, 112] -- -- ├─Sequential: 1-1 -- [3, 128, 112, 112] -- -- │ └─ConvNormActivation: 2-1 -- [3, 64, 112, 112] -- -- │ │ └─Conv2d: 3-1 [3, 3] [3, 64, 112, 112] 576 21,676,032 │ │ └─BatchNorm2d: 3-2 -- [3, 64, 112, 112] 128 384 │ │ └─ReLU6: 3-3 -- [3, 64, 112, 112] -- -- │ └─Conv2d: 2-2 [1, 1] [3, 128, 112, 112] 8,192 308,281,344 │ └─BatchNorm2d: 2-3 -- [3, 128, 112, 112] 256 768 ============================================================================================================================================ Total params: 9,152 Trainable params: 9,152 Non-trainable params: 0 Total mult-adds (M): 329.96 ============================================================================================================================================ Input size (MB): 
…
================================================================= . summary(TorchMobileNetV2Block,input_size=input_size,col_names=[&quot;kernel_size&quot;, &quot;output_size&quot;, &quot;num_params&quot;, &quot;mult_adds&quot;]) . ============================================================================================================================================ Layer (type:depth-idx) Kernel Shape Output Shape Param # Mult-Adds ============================================================================================================================================ InvertedResidual -- [3, 128, 112, 112] -- -- ├─Sequential: 1-1 -- [3, 128, 112, 112] -- -- │ └─ConvNormActivation: 2-1 -- [3, 128, 224, 224] -- -- │ │ └─Conv2d: 3-1 [1, 1] [3, 128, 224, 224] 8,192 1,233,125,376 │ │ └─BatchNorm2d: 3-2 -- [3, 128, 224, 224] 256 768 │ │ └─ReLU6: 3-3 -- [3, 128, 224, 224] -- -- │ └─ConvNormActivation: 2-2 -- [3, 128, 112, 112] -- -- │ │ └─Conv2d: 3-4 [3, 3] [3, 128, 112, 112] 1,152 43,352,064 │ │ └─BatchNorm2d: 3-5 -- [3, 128, 112, 112] 256 768 │ │ └─ReLU6: 3-6 -- [3, 128, 112, 112] -- -- │ └─Conv2d: 2-3 [1, 1] [3, 128, 112, 112] 16,384 616,562,688 │ └─BatchNorm2d: 2-4 -- [3, 128, 112, 112] 256 768 ============================================================================================================================================ Total params: 26,496 Trainable params: 26,496 Non-trainable params: 0 Total mult-adds (G): 1.89 ============================================================================================================================================ Input size (MB): 38.54 Forward/backward pass size (MB): 462.42 Params size (MB): 0.11 Estimated Total Size (MB): 501.06 ============================================================================================================================================ .",
…
